{
    "input_5": {
        "class_name": "InputLayer",
        "config": {
            "batch_input_shape": [
                null,
                64
            ],
            "dtype": "float32",
            "sparse": false,
            "ragged": false,
            "name": "input_5"
        }
    },
    "dense_4": {
        "class_name": "Dense",
        "config": {
            "name": "dense_4",
            "trainable": true,
            "dtype": "float32",
            "units": 15,
            "activation": "relu",
            "use_bias": true,
            "kernel_initializer": {
                "class_name": "GlorotUniform",
                "config": {
                    "seed": null
                }
            },
            "bias_initializer": {
                "class_name": "Zeros",
                "config": {}
            },
            "kernel_regularizer": null,
            "bias_regularizer": null,
            "activity_regularizer": null,
            "kernel_constraint": null,
            "bias_constraint": null
        }
    },
    "dense_5": {
        "class_name": "Dense",
        "config": {
            "name": "dense_5",
            "trainable": true,
            "dtype": "float32",
            "units": 2,
            "activation": "relu",
            "use_bias": true,
            "kernel_initializer": {
                "class_name": "GlorotUniform",
                "config": {
                    "seed": null
                }
            },
            "bias_initializer": {
                "class_name": "Zeros",
                "config": {}
            },
            "kernel_regularizer": null,
            "bias_regularizer": null,
            "activity_regularizer": null,
            "kernel_constraint": null,
            "bias_constraint": null
        }
    },
    "dense_6": {
        "class_name": "Dense",
        "config": {
            "name": "dense_6",
            "trainable": true,
            "dtype": "float32",
            "units": 15,
            "activation": "relu",
            "use_bias": true,
            "kernel_initializer": {
                "class_name": "GlorotUniform",
                "config": {
                    "seed": null
                }
            },
            "bias_initializer": {
                "class_name": "Zeros",
                "config": {}
            },
            "kernel_regularizer": null,
            "bias_regularizer": null,
            "activity_regularizer": null,
            "kernel_constraint": null,
            "bias_constraint": null
        }
    },
    "dense_7": {
        "class_name": "Dense",
        "config": {
            "name": "dense_7",
            "trainable": true,
            "dtype": "float32",
            "units": 64,
            "activation": "linear",
            "use_bias": true,
            "kernel_initializer": {
                "class_name": "GlorotUniform",
                "config": {
                    "seed": null
                }
            },
            "bias_initializer": {
                "class_name": "Zeros",
                "config": {}
            },
            "kernel_regularizer": null,
            "bias_regularizer": null,
            "activity_regularizer": null,
            "kernel_constraint": null,
            "bias_constraint": null
        }
    }
}