…
	output init_blk_rdy,

	/** output Hand Shaking **/ 
	output ready,
	input  blk_rec_rdy,

	/** RAM_IN assignments **/
	output [10-1:0]   addr_RAM_in,
	input  [16-1:0]   data_RAM_in,

	/** RAM_OUT assignments **/
	output [2-1:0]    addr_wr_RAM_out,
	output [16-1:0]   data_wr_RAM_out,
	output            wr_en

);

/**** Summary of model_1, where the Input Shape is: 15x35x1 
_________________________________________________________________
Layer (type)                 Output Shape              Param #   
=================================================================
conv2d_1 (Conv2D)            (None, 11, 31, 4)         104       
_________________________________________________________________
batch_normalization_1 (Batch (None, 11, 31, 4)         16        
_________________________________________________________________
activation_1 (Activation)    (None, 11, 31, 4)         0         
_________________________________________________________________
conv2d_2 (Conv2D)            (None, 8, 27, 6)          486       
_________________________________________________________________
activation_2 (Activation)    (None, 8, 27, 6)          0         
_________________________________________________________________
conv2d_3 (Conv2D)            (None, 7, 23, 8)          488       
_________________________________________________________________
activation_3 (Activation)    (None, 7, 23, 8)          0         
_________________________________________________________________
conv2d_4 (Conv2D)            (None, 6, 19, 10)         810       
_________________________________________________________________
activation_4 (Activation)    (None, 6, 19, 10)         0         
_________________________________________________________________
conv2d_5 (Conv2D)            (None, 6, 16, 12)         492       
_________________________________________________________________
activation_5 (Activation)    (None, 6, 16, 12)         0         
_________________________________________________________________
max_pooling2d_1 (MaxPooling2 (None, 3, 8, 12)          0         
_________________________________________________________________
conv2d_6 (Conv2D)            (None, 2, 6, 14)          1022      
_________________________________________________________________
activation_6 (Activation)    (None, 2, 6, 14)          0         
_________________________________________________________________
flatten_fpg_a2d_1 (FlattenFP (None, 168)               0         
_________________________________________________________________
dense_1 (Dense)              (None, 100)               16900     
_________________________________________________________________
dense_2 (Dense)              (None, 4)                 404       
_________________________________________________________________
activation_7 (Activation)    (None, 4)                 0         
=================================================================
Total params: 20,722
Trainable params: 20,714
Non-trainable params: 8
_________________________________________________________________

****/

	/********** convolutional 2D block: conv2d_1; dims=15x35x1 to 11x31x4 **********/
	localparam H_C1_IN	= 15;
	localparam W_C1_IN	= 35;
	localparam C_C1_IN	= 1;

	localparam H_C1_FILTERS = 5; 
…
